deep_lstm_full_model.pth (torch, 334831 bytes, 9 tensors)

weight_ih_l0 f4 [256, 127]
000000 f2 77 e7 3e 74 e3 d6 3d 3d b7 8a 3e 07 f6 fd 3e
       0.452087 0.10492602 0.27092925 0.49601766
000010 29 1b 9f be 50 ed 8a 3c a6 7c 4c be e3 46 81 be
       -0.3107541 0.016958863 -0.19969425 -0.25249395
000020 ac 37 78 bf 70 16 1b bf 5b 75 24 c0 d2 56 4e 3e
       -0.9695995 -0.6058111 -2.5696628 0.20150307
000030 aa 94 0d bf 31 57 d5 3f 8e 9d 34 bf d2 d5 30 3f
       -0.5530497 1.6667234 -0.7055291 0.69076264
000040 f8 7e f6 3c 85 08 43 bf 34 8e 90 bd 10 53 aa bf
       0.03008984 -0.76184875 -0.07058373 -1.3306599
000050 cc ab 20 c0 ef 85 b6 bf b6 96 b1 3d 3e f0 4f 3b
       -2.5104856 -1.4259623 0.08671324 0.003172889
000060 4a 87 ac 3e d3 62 32 3f 4d 70 bb bf fc 91 ef bc
       0.33696967 0.69682044 -1.4643646 -0.029244415
000070 ae fa f5 be 85 10 9d 3f 8a e1 a0 3f ea 5a ae be
       -0.48042816 1.2270666 1.2568829 -0.34053737
000080 b3 db 84 bf f0 c6 d0 bf 99 74 2c be 83 f1 e4 bd
       -1.0379547 -1.6310711 -0.16841353 -0.11178877
000090 c7 d9 56 bf 60 4a 93 bf 68 59 93 bd 55 54 9d be
       -0.8392605 -1.1507072 -0.07194787 -0.30728403
0000a0 b8 8f a0 bd c9 3c 24 be 91 e5 94 3d 8b 1b a9 bf
       -0.07839912 -0.16038813 0.07270349 -1.321153
0000b0 6e 99 43 3e 0c 2f 2b 3f 1d cc fe 3e 5b ed 00 bf
       0.19101498 0.6686866 0.497651 -0.50362176
0000c0 ff ef bb 3f ca 02 16 40 78 fe 81 3f cf f9 66 3c
       1.4682616 2.3439202 1.0155783 0.014097645
0000d0 a9 00 91 3d 59 2c e3 bd 0d 9a 35 be dc 95 15 3d
       0.07080204 -0.11092443 -0.17734547 0.03651987
0000e0 e5 71 84 be 5a 18 9d bf 88 ff 5e be d5 6e f4 bf
       -0.25868145 -1.2273057 -0.21777165 -1.9096323
0000f0 ed 3a 40 3f 19 8c 0a 3f 5a 1d d1 be aa 31 2b bf
       0.75089914 0.5412002 -0.40842706 -0.66872656
000100 8f 82 b2 3d 34 e7 0a be 80 b6 9f 3f b0 4a 93 bd
       0.08716308 -0.1356476 1.247757 -0.0719198
000110 a5 30 60 3e 5c 17 13 bf ed 90 cf 3d 1b 79 7a 3f
       0.21893556 -0.5745752 0.10135064 0.9784104
000120 c9 c8 7d 3f d8 30 8f bf 47 dd 58 be 05 54 d2 3c
       0.991345 -1.1186781 -0.2117816 0.02567483
000130 1f 22 12 bf c9 5b 12 bf 72 90 c5 3e c8 37 2f bd
       -0.57083315 -0.57171303 0.38586766 -0.042777807
000140 bc 8a d9 be 17 4f 19 bf cc 66 53 bf a7 09 ba 3e
       -0.42488658 -0.59886307 -0.8257873 0.3633549
000150 23 6a 35 3d 31 be a3 bf 58 8f 8f 3f d5 8b d6 be
       0.044290673 -1.2792417 1.121562 -0.41903558
000160 15 32 b5 3d 6b 32 d5 bf 4d 54 aa be 54 42 9d bf
       0.08847443 -1.6656011 -0.3326744 -1.2285867
000170 8f dc 1c bf 51 20 10 bf bb d6 5b bd 2c 84 a9 3e
       -0.61274046 -0.5629931 -0.05367158 0.33108652
000180 b9 9d 8b bf 5a 3a 9f 3f a2 9a 99 3e a7 a6 38 3f
       -1.0907508 1.2439682 0.30000788 0.7212929
000190 90 4f 39 be a7 39 ff 3d 03 d7 4c bf b7 56 53 bf
       -0.18096757 0.12462168 -0.8001558 -0.8255419
0001a0 2d 79 31 3f 98 af 10 3f b2 cd f3 be 62 6b 13 bc
       0.69325525 0.56517935 -0.4761787 -0.00899777
0001b0 35 93 c6 3f 8e b1 79 bf 53 88 94 bf bc 6d e6 be
       1.5513674 -0.9753655 -1.1604103 -0.45005596
0001c0 70 64 8f 3f 52 fa 68 3f 72 05 a8 bf b0 a9 2a 3f
       1.1202526 0.9100696 -1.3126662 0.6666517
0001d0 f3 6e 62 be ee 86 42 bc d3 17 65 bf a8 23 ea be
       -0.22112636 -0.01187299 -0.8948948 -0.4573033
0001e0 27 12 7c bf 1f b9 7e 3f 55 ce 35 3e 46 43 3f 3d
       -0.984652 0.9950122 0.1775449 0.046695016
0001f0 27 5a 81 3f 90 6f 90 be 46 0d e2 bd d3 39 3b 3f
       1.0105637 -0.28210115 -0.11037688 0.7313511
000200 91 4f 42 3e d2 9b 66 bd 5b 72 15 3f e9 0f 66 3f
       0.18975665 -0.056300946 0.5837762 0.89868027
000210 2a af 19 be cf d7 6b 3f ba 40 bb bf 7c d3 0a bf
       -0.15008226 0.9212617 -1.4629128 -0.5422895
000220 a6 62 c3 3f ec 8d 8f 3f ef 85 90 3f d7 6c 7f 3e
       1.526448 1.1215186 1.1290873 0.24943863
000230 43 83 ba 3e 8a c2 f7 3e 96 55 e9 3d 16 87 6d bd
       0.3642827 0.4839061 0.11393277 -0.057990156
000240 b7 24 70 3f f0 52 00 3f 55 4f 11 bf 87 3b 08 be
       0.9380602 0.5012655 -0.56761676 -0.13303958
000250 89 28 d5 3f 1e 27 c5 bd 00 24 19 3f 71 21 49 bf
       1.6652995 -0.09626602 0.59820557 -0.7856665
000260 d2 b4 2d bf 94 2c 5e be 67 3b 86 3e 10 49 4e bf
       -0.67854035 -0.21696693 0.26217195 -0.80580235
000270 84 30 1c be 1f ed 58 be ce 9b 97 3e 61 5f 8c 3f
       -0.15252882 -0.21184205 0.29611057 1.0966607
000280 61 a7 93 3e a2 dd b3 3e 41 e8 8f 3f 92 64 2b bf
       0.28838637 0.3513003 1.1242753 -0.66950333
000290 ce 4f 43 3f 7d 8d 19 3f 42 6a 1a bf f6 08 9e 3d
       0.7629365 0.5998152 -0.60318387 0.07716553
0002a0 dc b9 a2 3f 1f 61 6e bd 95 f8 01 3f 2c 60 83 3e
       1.271297 -0.05819809 0.5076993 0.2565931
0002b0 ba 4c c1 3f 7a be c1 3f 6b ce 1a bf 9a 7a ac bf
       1.510154 1.5136254 -0.6047122 -1.3474915
0002c0 a6 6c ca be 2d 01 17 be 6b 2e 0c 3f e3 47 39 3e
       -0.39536017 -0.14746542 0.5475833 0.18093829
0002d0 3e 96 b3 3e e4 9a e4 be 92 1f f8 be ba cb 8e be
       0.35075563 -0.44649422 -0.48461586 -0.27889806
0002e0 c9 e1 37 3f 2a 8d b2 be bb 98 63 bf d4 ed c2 be
       0.71828896 -0.34873325 -0.88904923 -0.38072073
0002f0 92 87 21 3f d6 84 c4 be 16 4b 68 3e 94 5c 60 bf
       0.6309749 -0.38382596 0.22684893 -0.87641263
000300 42 b9 a0 be 81 1c 48 bf d8 63 41 be 72 fa 8b 3f
       -0.3139134 -0.78168494 -0.18885744 1.0935805
000310 b3 e9 6c 3f fb a4 7b bf ce 28 05 bf 63 7b 69 bf
       0.92544097 -0.98298615 -0.5201539 -0.912039
000320 d7 3a 86 3d 65 48 0a bf b7 8d df 3e f3 e6 4c bf
       0.065541916 -0.54016715 0.43662807 -0.800399
000330 be 26 2b bf 67 3c ad bf f5 64 53 3f 65 2c 87 bf
       -0.6685599 -1.3534058 0.82575923 -1.0560423
000340 25 05 85 3e cb 6a fb be 4a 55 2c 3d 56 ef eb 3e
       0.25980487 -0.49104914 0.042073525 0.46081036
000350 9e 8a 09 bf 38 85 f4 3d 87 04 ea 3d a6 a0 a6 bf
       -0.5372714 0.11939472 0.11426645 -1.3017776
000360 e8 88 a1 be 75 3d 4c 3d a1 d8 36 bf cb ab e7 be
       -0.31549764 0.049863297 -0.714243 -0.45248255
000370 4b dc 8f 3f 86 e9 24 be a2 80 91 3f a0 34 96 3e
       1.1239103 -0.16104707 1.1367381 0.29337025
000380 56 d0 98 bf 17 1b 24 3f 5c 3b 7a be fc df a9 be
       -1.1938579 0.64103836 -0.24436706 -0.331787
000390 92 86 cc be 90 b6 db 3e 10 78 63 bf 3f 60 a8 be
       -0.3994642 0.42912722 -0.88855076 -0.3288593
0003a0 db 88 68 bf 54 26 59 3f ef 6f 5a bf fb 62 0d bf
       -0.90833825 0.8482411 -0.8532705 -0.5522916
0003b0 6a f3 88 3e a4 fa 54 3f 58 e1 4c 3e aa 8f 24 c0
       0.2674821 0.8319495 0.20007837 -2.5712686
0003c0 1c f6 9b 3d 12 85 ac 3e 21 ad 4a bf a2 53 1f bf
       0.07615301 0.33695275 -0.79170424 -0.6223699
0003d0 e4 7f ae 3e 41 11 44 be fb d5 74 be 97 b0 71 bf
       0.34081948 -0.19147207 -0.23909752 -0.9441008
0003e0 49 ad 29 3f d3 31 b1 be 93 5c ba 3e 96 af ad bf
       0.6628004 -0.34608325 0.36398754 -1.356921
0003f0 aa 9f 31 bf 30 a9 db bd 01 95 96 be c5 12 11 be
       -0.69384253 -0.10725629 -0.29410556 -0.14167316

weight_hh_l0 f4 [256, 64]
000000 73 87 39 be cc 14 13 3e c5 3f 43 3e 4c ef 43 bf
       -0.18118076 0.14363402 0.19067295 -0.76537013
000010 91 01 e9 bd a6 c4 0c 40 42 bf 53 3f 41 be e0 be
       -0.11377252 2.1995025 0.8271371 -0.43895152
000020 75 b5 51 3f 37 e4 bd bf 1b c7 e3 3f 87 53 5f 3d
       0.81917506 -1.4835271 1.7795137 0.054523017
000030 dd b2 10 bf de c8 d5 3f 9e 62 d0 bf 86 5a 8b bf
       -0.56522924 1.6701925 -1.6280096 -1.0887
000040 8c 3c 73 be f5 59 9b bf b3 7d 23 40 41 de fc 3f
       -0.23753566 -1.2136828 2.554547 1.9755327
000050 b0 99 ba 3e ce 38 4e 3f ef 5b fe 3f 05 b9 0c 3d
       0.3644538 0.8055543 1.9871806 0.034356136
000060 5f 16 19 bf d1 18 27 3e 0a 78 9e 3f bf 73 76 bf
       -0.5979976 0.1631806 1.2380383 -0.96270365
000070 7f dc 0b 3f b4 b1 13 40 38 e1 07 bf d2 b4 87 bf
       0.54633325 2.3077211 -0.5307803 -1.0602057
000080 56 0a 65 3f 50 35 ea 3f a7 40 44 3f fd 0c 87 3f
       0.89468896 1.829752 0.7666115 1.0550839
000090 a5 4c 68 bf 9f 0f 08 40 dd 57 b1 ba b7 a4 cf 3e
       -0.9074195 2.1259534 -0.0013530214 0.40555355
0000a0 4b 21 39 3f c7 3b d0 3f 8d 7e c1 bf 04 73 0a c0
       0.72316426 1.6268243 -1.5116745 -2.16327
0000b0 62 f8 85 3d 61 58 be be fe a3 be bf 42 8e c4 3f
       0.06541516 -0.37176803 -1.4893796 1.5355914
0000c0 43 d7 c8 3e fc 18 b5 3e ce b1 b0 3f 75 98 5a 3e
       0.39226732 0.35370624 1.3804262 0.2134722
0000d0 db 33 c4 be ee 15 39 3f 3d 5f e4 3f ee cc 8e 3f
       -0.38320813 0.7229909 1.7841564 1.115629
0000e0 24 c4 3e c0 77 e0 ca be f1 2f 14 40 98 12 74 3f
       -2.9807215 -0.39624378 2.315426 0.9534087
0000f0 cf 26 b3 bf f6 67 fd be 6f ac 35 bd 67 c9 91 3e
       -1.3996218 -0.49493378 -0.0443539 0.2847397
000100 8a 18 fb 3d 25 0b ae bf c7 8d 9d 3f a6 fa 33 be
       0.1226054 -1.3597151 1.2308892 -0.17576084
000110 77 b6 a7 be 29 c4 09 3f de ad 91 bf 48 6f 86 bf
       -0.32756397 0.5381494 -1.1381185 -1.050271
000120 b3 de 27 bf ea 81 0f 3f 39 60 a1 be a1 ca 8f 3f
       -0.6557419 0.5605761 -0.31518725 1.1233712
000130 16 b0 a2 be 27 47 79 3e a0 66 95 be 3f bc cd 3e
       -0.31774968 0.24343549 -0.2917986 0.40182683
000140 7b 80 d1 be 3c 3f 26 be 8f 5e 20 bf 94 98 bb 3f
       -0.40918335 -0.1623506 -0.62644285 1.4655938
000150 e6 41 c0 bf 74 d1 88 bf 87 5e 5a 3f 7a 61 77 be
       -1.5020111 -1.068892 0.8530049 -0.24158278
000160 ee b8 26 3e 25 5c 28 3f 80 89 15 bf 54 5a 5e bf
       0.16281483 0.657656 -0.58412933 -0.8685658
000170 7c d7 3f bf 13 97 56 bf 14 d1 97 bf d8 99 ca bd
       -0.7493818 -0.8382427 -1.186068 -0.098926246
000180 5a 06 4a 3d 0b e6 97 bd 36 90 2a 3f f7 56 8c 3d
       0.049322464 -0.07416924 0.666263 0.06852525
000190 6e b2 4c bc 5f bf ac be d8 2f 7e be d1 ed da be
       -0.012493713 -0.33739755 -0.24822938 -0.42759565
0001a0 53 43 f9 be 62 31 5b 3e 7b 9e d4 3d d4 00 01 3f
       -0.48684177 0.21405557 0.1038179 0.5039189
0001b0 ed a7 1e 3e 78 74 c5 bf 61 ca b1 3e 34 6a 46 bf
       0.15493746 -1.5426168 0.34724715 -0.77505803
0001c0 bf 84 eb bb e5 bc 91 3d d3 54 dd 3f d1 f1 a3 bf
       -0.0071874554 0.07116107 1.7291511 -1.2808172
0001d0 31 21 c0 be bd 3e 88 3f 1c 22 36 3f b0 30 79 be
       -0.37525323 1.0644146 0.71145797 -0.24334979
0001e0 60 16 ba bf dd dc 8b bf 67 18 a4 be 38 6d 7f bf
       -1.4538078 -1.0926777 -0.32049868 -0.9977603
0001f0 18 6c 45 3f bc fa 30 3f 05 e6 96 be 60 6e 72 bf
       0.7711806 0.6913259 -0.29472366 -0.9469967
000200 b2 e3 ef be 56 bd ac bf 6a e0 82 bc 47 17 8d 3f
       -0.46853405 -1.3495281 -0.01597615 1.1022729
000210 8d cb 12 3f e6 e1 72 bf 38 5e 10 bf ac 6b d9 3e
       0.57341844 -0.94875944 -0.56393766 0.4246496
000220 bb 7e 38 bf f2 a7 4c be 0e 6c c0 3d 79 f6 8a bd
       -0.72068375 -0.19985941 0.0939561 -0.06785292
000230 9c 44 02 bf 71 dc f6 3f 7e 9b 37 bf 0f 6f 13 40
       -0.5088594 1.9286023 -0.7172164 2.3036535
000240 36 54 32 40 b4 15 8a 3f 71 25 35 bf b1 d2 b2 3d
       2.7863898 1.0787873 -0.70760256 0.087315924
000250 6b 01 cf 3f 06 34 78 3e bb 54 26 bf 1e 6c 0b c0
       1.6172308 0.24238595 -0.6497304 -2.178474
000260 f0 e5 a6 bf 05 b1 7d 3f 9c be 4e bf 4d 3c 58 3f
       -1.3038921 0.99098235 -0.80759597 0.8446701
000270 a8 72 a6 be bb 0b 94 3e 0f 4a 16 3f d6 ef 52 3e
       -0.3250935 0.289152 0.58706754 0.20599303
000280 42 16 89 bf cb 56 d9 3e e1 75 61 be e3 38 34 be
       -1.0709918 0.4244903 -0.22017623 -0.17599826
000290 aa fb 16 bf c2 43 e3 bf e2 74 8a be 03 a0 c4 3e
       -0.5897776 -1.7755053 -0.270423 0.3840333
0002a0 b9 27 f8 3d c4 45 c3 bd d9 0d 8d bf 96 84 57 3e
       0.121169515 -0.09534791 -1.1019851 0.21046671
0002b0 a2 db e4 3e 64 53 8a 3e 5b e7 8b 3e 80 ae 8f bf
       0.44698817 0.27016747 0.27324948 -1.1225128
0002c0 37 24 0a bf 64 30 9e 3f 1b 83 08 c0 62 69 a4 3f
       -0.5396151 1.2358518 -2.133002 1.284466
0002d0 60 f7 0d 40 4e 77 58 be 0a d7 66 3f 1d 51 9b 3f
       2.2182236 -0.21139261 0.90171874 1.2134129
0002e0 b4 78 25 bf ab 40 c3 bf 32 07 47 bd 3c cc fc 3b
       -0.64637303 -1.525411 -0.048590846 0.0077147763
0002f0 44 da 94 bd f4 65 2a be d1 64 27 bf b2 3c 96 3f
       -0.07268193 -0.16640455 -0.6538821 1.1737273
000300 4c 98 0a bf 5b 33 99 3e d2 fc ba bf 50 ce d0 3d
       -0.54138637 0.29921994 -1.4608405 0.10195601
000310 0a 95 a4 3f 99 e2 2e bf c0 76 62 bd aa 16 5e bf
       1.2857983 -0.6831451 -0.05528903 -0.8675333
000320 e1 53 2d bf eb 54 12 c0 20 f0 5d 3f 00 c4 10 c0
       -0.67706114 -2.286433 0.86694527 -2.261963
000330 d0 bb 20 bf 88 a6 00 3f 75 0d 8d 3e 94 37 b1 bf
       -0.6278658 0.50254107 0.2754933 -1.3845086
000340 e3 96 78 3f 93 8a ea 3e bc 3a 82 bf b2 b8 a4 bf
       0.97105235 0.4580885 -1.0174174 -1.2868865
000350 b0 d0 61 bf fd 40 83 be 87 f3 53 bf 69 02 a0 bf
       -0.88209057 -0.2563552 -0.8279347 -1.2500736
000360 22 0d 04 c0 a5 f2 70 be cf 84 3d be e5 9f 03 3f
       -2.0633016 -0.23530062 -0.18507694 0.51415855
000370 df b9 fa 3f 5a 21 8a bf 2b 0f 73 3e 1e 98 95 3f
       1.9587973 -1.0791428 0.23736255 1.1687047
000380 51 3b e9 3f 5c a0 2a 3f 42 78 f6 3f de 7a e2 3f
       1.8221227 0.6665094 1.925545 1.7693746
000390 15 38 ce 3e dc 08 c9 bf bf 8e 6a 3d 1d ed 86 3e
       0.40277162 -1.5705829 0.05726504 0.26352778
0003a0 d7 3e e6 be ad 73 a0 bf 13 10 39 bf 79 e5 2e bf
       -0.44969818 -1.2535301 -0.7229015 -0.683189
0003b0 a4 5d 3b bf f1 be 0a c0 1b 79 55 bf 35 c2 39 3d
       -0.7318976 -2.1679041 -0.8338792 0.045351226
0003c0 6d 2c d8 bd c2 68 cc be 00 81 1e 3f b9 66 94 bf
       -0.105553485 -0.39923674 0.6191559 -1.1593848
0003d0 9a cd 4c bd d2 71 c2 3e fb 33 8c 3e 9a 73 c5 bf
       -0.050000764 0.37977463 0.27383408 -1.5425904
0003e0 5e 77 af 3e 31 d9 13 be c4 0e 64 3f cc 63 75 3f
       0.34270757 -0.1443832 0.8908503 0.958554
0003f0 69 a3 e1 bf d5 a6 0a 3f 3d 18 98 bf 2c e8 b0 bf
       -1.7627994 0.54160815 -1.1882397 -1.3820853

bias_ih_l0 f4 [256]
000000 89 f2 85 3e 39 7b a0 3e dd e5 3d be bc 81 7e 3f
       0.26161602 0.3134401 -0.18544717 0.9941671
000010 3f 50 f6 3e 70 30 ae bd be e7 00 be 70 34 8a be
       0.48108098 -0.085053325 -0.12588403 -0.26993132
000020 ba 01 12 be 88 26 1c 3d 2a fe 50 be 52 e5 a0 bd
       -0.14258471 0.038122684 -0.20409456 -0.078562394
000030 2b b9 d0 3d 99 55 b0 3e 18 dd d3 3e 02 93 4b be
       0.10191568 0.34440306 0.4137962 -0.19880298
000040 0a da 8f 3e 3f 1c 79 be 63 6e 9a 3e 64 ff 65 3f
       0.28096038 -0.24327181 0.30162343 0.8984282
000050 27 b6 81 be b6 7a 6f be 6e 9f 13 3f aa 69 a7 3e
       -0.25334284 -0.23386654 0.57665145 0.32697803
000060 90 69 05 be 6f 8d a3 3e b2 7d 31 bf c9 1c 03 3f
       -0.1302855 0.31943843 -0.6933242 0.512158
000070 54 4a ed be 85 06 41 3f a6 b7 c9 3e 0c 81 e7 be
       -0.4634577 0.75400573 0.39397925 -0.45215642
000080 68 37 51 3e 9f c3 15 3e 1d 3c 66 bd b9 9d 1d 3f
       0.20431292 0.14625405 -0.056209672 0.6156879
000090 55 d2 c8 bd 98 6d 6a be bb bf d7 b9 12 67 15 3f
       -0.09805743 -0.22893369 -0.00041150846 0.583604
0000a0 fc c0 90 3e 8a e8 18 3e b3 0f a3 be 04 12 ac 3d
       0.28272235 0.14932457 -0.31847915 0.08401874
0000b0 e1 f9 99 3e bb 13 42 3e 6a 61 bb 3e 75 58 4b bf
       0.30073455 0.18952839 0.3659776 -0.7943185
0000c0 89 7e a1 3e 08 f0 fd 3d a1 20 61 3f a3 b1 5b 3e
       0.3154185 0.12399298 0.8794041 0.21454482
0000d0 a3 87 f7 be 48 23 c0 3e 0e 3b ab 3d af f6 21 bf
       -0.4834567 0.37526917 0.08360873 -0.63267034
0000e0 9f db 6c 3e 5e cc 94 3d ba 36 f3 be dd 84 f7 bd
       0.23130654 0.072655424 -0.4750269 -0.120858885
0000f0 d4 a9 e5 3e b8 83 d0 3d 78 18 54 3e 8e 35 a2 be
       0.4485613 0.10181373 0.20712459 -0.31681484
000100 4d 44 93 be d5 1b 45 3f 5d 49 1b 3d da 4b 86 bf
       -0.28763047 0.76995593 0.03791176 -1.0491898
000110 1a fa af bd aa ac 06 3f d4 cf 6c bf 8e bf ca 3f
       -0.08592625 0.52607214 -0.9250462 1.5839708
000120 ad 92 06 3f 6b 17 70 bf 41 9b 82 bf c5 a5 04 3e
       0.5256756 -0.93785733 -1.020363 0.12953861
000130 8b 9d 48 bf 8f d5 a8 3f e2 ab 78 be ec dc 8c be
       -0.7836539 1.3190173 -0.24284318 -0.275123
000140 19 4c 77 bf fb 5d db be 9c 11 e3 be 31 81 18 3f
       -0.9660049 -0.4284514 -0.44349372 0.5957213
000150 c0 3d 8f bf 43 a5 ed bf 68 97 00 3d 12 6a 6e bd
       -1.119072 -1.8566059 0.031394392 -0.058206625
000160 f1 d1 0f 3f 5d 55 84 bf cb 05 d9 3e 7a bb 8e be
       0.5617972 -1.0338551 0.42387232 -0.27877408
000170 51 a3 db be 5e 6e c1 be 7c f8 2b 3f 1c 89 3d bf
       -0.42898038 -0.37779516 0.6717603 -0.7403734
000180 3c eb 13 3e 94 6b 47 bf 0d 77 e8 bf 21 9f e9 3d
       0.14445204 -0.77898526 -1.8161331 0.114073046
000190 34 15 0b 3f f2 5f 6c 3f 59 48 ab 3f 08 fc a1 bf
       0.5432923 0.923339 1.3381454 -1.2655039
0001a0 0c cf 04 3f d7 62 44 bf 22 1b d8 be bf f4 a6 3e
       0.5187843 -0.7671332 -0.422082 0.326086
0001b0 a5 52 80 3e 02 3d 74 3e 69 af f9 3e 5f 29 77 be
       0.25063053 0.23851398 0.4876664 -0.24136876
0001c0 8b 92 9a 3f 1f 79 6d 3c 45 6a 61 bf 4c 2d c7 be
       1.2075971 0.01449421 -0.8805278 -0.38901746
0001d0 19 ea 42 3f 2e 74 67 bf 2f e8 c2 be 86 68 63 bf
       0.76138455 -0.9041165 -0.38067767 -0.88831365
0001e0 d6 50 3d 3f bd 9c c9 be 8e 70 df be f9 ff a8 3e
       0.7395147 -0.39377394 -0.4364056 0.33007792
0001f0 59 27 a6 be 06 80 8e 3f 25 b0 b7 3e 1c cd 0f 3f
       -0.32451895 1.113282 0.35876575 0.5617235
000200 64 0f 90 be f6 cf 13 3f 89 2c d8 3e 1e 9f 52 be
       -0.28136742 0.577392 0.42221478 -0.20568511
000210 5f 55 82 3e a1 35 cd be 30 6d 00 3f c1 85 2a bd
       0.25455758 -0.40079978 0.50166607 -0.041631464
000220 1f f7 53 3e fb 5b a7 3c b5 82 19 bf 60 54 1b 3f
       0.20699738 0.020429602 -0.5996507 0.6067562
000230 d2 7f 31 bf de 83 bc be d7 4e a8 bd f9 b9 20 3f
       -0.69335663 -0.36819357 -0.082181625 0.6278377
000240 7f 7a cf 3e 78 de 0a 3f 32 18 2f 3f f1 ad 13 3f
       0.40523145 0.5424571 0.68396294 0.5768729
000250 32 59 8e bd 66 19 2f 3f 54 31 78 3e 5c 2e 78 be
       -0.069506064 0.6839813 0.24237567 -0.24236435
000260 35 ed 16 3f 43 7d 41 3f c0 f7 5f be 84 29 83 3e
       0.589557 0.7558176 -0.21871853 0.2561761
000270 c7 f4 c8 3e ed 7b 39 bf 1f 4f 2f bf 4e bf b2 3e
       0.3924925 -0.7245472 -0.68480104 0.3491158
000280 26 ed 93 bf 10 c2 f4 3e df 18 a3 3d c8 de 29 be
       -1.1556747 0.47804308 0.07963728 -0.1658889
000290 0e 46 ef be 53 4d 0c 3f e4 11 1c bf 20 32 28 3d
       -0.46733135 0.5480549 -0.609648 0.041063428
0002a0 53 5c 2f 3f 80 80 7e be 1f 30 a0 be d0 54 b1 be
       0.6850025 -0.24853706 -0.31286713 -0.3463502
0002b0 b8 4f 8e 3e 23 2e 75 be 20 3c 39 bf da 83 ad 3e
       0.27795196 -0.23943381 -0.7235737 0.33889657
0002c0 3f cf 13 bf 03 68 59 bf 50 28 30 be 75 2c 10 bf
       -0.5773811 -0.84924334 -0.17202878 -0.56317836
0002d0 33 97 06 3f a3 33 65 be f3 8c 82 bd 16 ce 76 be
       0.5257446 -0.22382979 -0.0637454 -0.24102053
0002e0 c6 33 b6 3e a5 ed 22 be 11 7b 3d bf a6 10 5c 3f
       0.35586375 -0.15910967 -0.7401591 0.85962903
0002f0 d2 de e0 3e ca 27 bc be 9e f7 aa be 5a 4d aa be
       0.43919998 -0.36749107 -0.33392042 -0.3326214
000300 c9 9d 01 be 73 dc bf 3f f1 7f e5 3e 8f 12 39 3f
       -0.12657847 1.4989151 0.44824174 0.72293943
000310 e6 09 03 3e a3 c8 24 3e 5c cd c5 3e 47 f1 f6 3f
       0.12796745 0.16092162 0.3863324 1.9292382
000320 70 18 10 3f d1 9f 98 3f 06 d3 8b 3d 6f 1d f2 3e
       0.5628729 1.1923772 0.06827359 0.4728808
000330 3d 1d ac 3e 6d ee 41 3e f4 d5 51 3e 59 c6 27 be
       0.33616057 0.18938608 0.20491773 -0.16384257
000340 0c 8e 0a 3e 53 1d 73 be 16 df 8f 3f a0 a5 f6 3e
       0.13530749 -0.23741655 1.1239955 0.48173237
000350 bf 37 55 3f f4 b1 e3 bd d5 1a 6c 3f 8c f1 e9 be
       0.83288187 -0.11117926 0.9222844 -0.45692098
000360 3b ec 79 3f de c8 1e 3f 38 26 dc 3e bb f9 9e 3f
       0.97626084 0.6202525 0.4299791 1.2419962
000370 fb fb 74 bc e1 a4 ae 3f 37 e1 4c 3f 17 ba d9 3e
       -0.014952655 1.3644067 0.8003115 0.42524788
000380 07 72 25 be 4e 65 57 3f 93 4d 84 3e 32 bf 08 3f
       -0.16156779 0.84138954 0.25840434 0.5341674
000390 38 c8 3d be e6 3c 10 3f be f7 57 3f e7 b0 b9 3e
       -0.18533409 0.56342924 0.843624 0.36267778
0003a0 b1 97 c1 3f eb e4 9c 3f cb 52 e1 3e 69 7e 20 3f
       1.5124418 1.225736 0.4400848 0.62692887
0003b0 64 03 96 3f a2 9f 8e bb 56 79 17 3f 69 0c e7 3e
       1.1719785 -0.004352526 0.5916952 0.45126656
0003c0 25 94 64 3f 29 5f 44 3f 84 aa 5b 3f 0b 1e 8c 3e
       0.8928855 0.767077 0.8580706 0.2736667
0003d0 d6 25 1d 3c f6 88 4f 3f e1 8a 98 3e cd 6a c6 bd
       0.00959154 0.8106836 0.29793456 -0.096883394
0003e0 e2 88 f0 3d b1 e8 5c 3f 5e 3e d9 3d f7 27 12 3f
       0.11744858 0.8629256 0.10607599 0.5709223
0003f0 a5 49 9d 3e 0a 6e 5d 3f d2 49 88 3e a7 64 4d 3f
       0.3072025 0.8649603 0.2661882 0.8023171

bias_hh_l0 f4 [256]
000000 55 ca 23 3e 9a bf 3e 3e 66 f1 32 be b3 86 52 3f
       0.15995152 0.18627778 -0.17474899 0.82236785
000010 0f 08 e3 3e de 51 c3 3d c1 be 4a be 24 64 99 be
       0.44342086 0.09537099 -0.1979933 -0.29959214
000020 e6 2e 01 bc 2f 41 7b bb a7 af b5 be 10 6f 2e be
       -0.007884717 -0.0038338413 -0.35485575 -0.17034554
000030 60 e1 2d 3e e6 8d 03 3f 92 e0 09 3f af a2 86 be
       0.16980505 0.51388395 0.5385829 -0.26295993
000040 e0 75 80 3e 56 a2 8c bd 9a 46 30 3e 0b 24 77 3f
       0.2508993 -0.068669006 0.17214432 0.9653937
000050 fc 7c 40 be 0c dc 2d be 14 64 f9 3e 60 3b d0 3e
       -0.18797678 -0.16978472 0.48709166 0.406703
000060 e6 f3 be bb 89 ce 7d 3e 58 2c 60 bf 02 05 14 3f
       -0.005827415 0.24785818 -0.87567663 0.5782014
000070 cf a3 00 bf 48 d9 3f 3f 4d aa db 3e b2 4c d7 be
       -0.5024995 0.7494092 0.42903367 -0.420507
000080 85 fa 81 3e 72 fc a3 3d ca 7b bf 3d 97 32 26 3f
       0.25386444 0.080071345 0.09349783 0.64920944
000090 05 4c 80 bd 8b e0 3e be 18 61 d0 3d 95 e3 30 3f
       -0.062644996 -0.18640344 0.10174769 0.6909726
0000a0 15 a5 74 3e 1f 97 f6 3d 3f 41 43 be 97 26 56 3e
       0.23891099 0.12040543 -0.19067858 0.20913158
0000b0 2b 21 07 3e ab c9 fa 3d 8c 74 c6 3e 5f b0 5c bf
       0.13196246 0.12245496 0.38760793 -0.8620662
0000c0 e3 43 c4 3e f5 84 47 3e 04 8f 49 3f e3 a4 11 3e
       0.38333043 0.19484313 0.7873385 0.14223056
0000d0 ce 4d a2 be 13 8a ba 3e c5 0a 49 3d 1a f5 1b bf
       -0.31699985 0.36433467 0.049082536 -0.6092087
0000e0 55 a5 c1 3d bb ac b7 3d db cd d6 be e3 07 7e be
       0.09455363 0.089684926 -0.4195393 -0.24807696
0000f0 8e 6e 01 3f 28 0a 9c 3c 59 c0 af 3d 2b db ba be
       0.5055932 0.019047812 0.08581609 -0.36495337
000100 5e 51 fd be 63 06 51 3f 46 a7 13 3d 03 3e a0 bf
       -0.4947614 0.8165037 0.036048196 -1.2518924
000110 5a c5 46 be 3d 49 fd 3e 60 c0 75 bf 73 12 c8 3f
       -0.19411221 0.4946994 -0.95996666 1.563063
000120 b0 e2 0c 3f 6c 74 56 bf f6 38 92 bf 69 ca a0 3e
       0.550334 -0.83771396 -1.1423633 0.31404427
000130 5a 71 3e bf 03 99 ab 3f 05 95 26 be 01 e6 9f be
       -0.7439171 1.340607 -0.16267784 -0.31230167
000140 4a 31 5b bf c5 71 b0 be ea 7c d7 be 08 f4 fd 3e
       -0.85622084 -0.344618 -0.4208749 0.49600244
000150 82 26 6d bf e7 7a e3 bf f5 93 a0 bc a9 35 e7 bd
       -0.92636883 -1.7771882 -0.019601801 -0.11289532
000160 8a 5a 1c 3f 10 f5 82 bf e4 bb 8d 3e c6 d5 87 be
       0.6107565 -1.0231037 0.27682412 -0.26530284
000170 58 10 c8 be 76 76 c5 be 1b 8c 59 3f 96 18 3b bf
       -0.3907497 -0.3856694 0.8497941 -0.7308439
000180 96 77 9d 3e a8 46 3c bf 8c 13 ee bf 9c 59 d6 3d
       0.307553 -0.7354531 -1.8599715 0.104663104
000190 ca ca c7 3e 31 a5 63 3f 6e 65 b4 3f 19 8e bc bf
       0.39021903 0.8892394 1.4093454 -1.4730865
0001a0 5b a3 0b 3f 67 4b 49 bf 45 c0 22 bf d4 4a 07 3f
       0.54546136 -0.7863068 -0.6357463 0.52848554
0001b0 df 61 5f 3e e5 86 9a 3e 5f 7f 11 3f d3 43 76 be
       0.21814679 0.3018104 0.5683498 -0.2404931
0001c0 66 28 8b 3f e7 22 03 3d c3 4d 4a bf 56 22 05 bf
       1.0871704 0.032015707 -0.79024905 -0.5200552
0001d0 b7 4f 3e 3f 3d 3c 5e bf c4 72 a7 be 4a f1 6c bf
       0.74340385 -0.86810666 -0.32704747 -0.9255568
0001e0 78 47 42 3f ee 64 a5 be 4b 27 fc be 96 0b de 3e
       0.758903 -0.32303566 -0.49248728 0.43368214
0001f0 02 10 99 be a3 9b 82 3f 70 33 ba 3e 35 33 1e 3f
       -0.29895025 1.0203747 0.3636737 0.61796886
000200 74 7e 78 be df 42 1c 3f 58 19 04 3f e8 a9 3e be
       -0.24266988 0.6103954 0.5160117 -0.18619502
000210 31 9f ed 3d 7f 8d a5 be 70 02 fb 3e 4f 86 06 bd
       0.11602629 -0.32334515 0.49025297 -0.03284293
000220 11 80 52 3d 06 fb 6a 3d f0 5a 0f bf fc 17 15 3f
       0.051391665 0.0573683 -0.55998135 0.5823972
000230 81 d1 1f bf 6e d0 a4 be 0c 1c 2c bc fd 03 12 3f
       -0.6242905 -0.3219027 -0.010504734 0.57037336
000240 ee 94 96 3e 79 50 11 3f 4f 77 4a 3f 47 24 16 3f
       0.294105 0.56763417 0.790883 0.58649105
000250 17 dc 9c 3b 1a c9 2a 3f 99 d1 7d 3e 14 55 94 bd
       0.004786979 0.66713107 0.24786986 -0.0724279
000260 7f f2 fb 3e 3c c4 23 3f 55 b7 4c bd 0d 2a 8c 3e
       0.49208447 0.63971305 -0.049979527 0.27375832
000270 5c 0d bf 3e 89 34 48 bf 81 59 ff be e1 79 dc 3e
       0.3731488 -0.7820516 -0.49872974 0.43061736
000280 ee 6e 8d bf aa a2 00 3f 12 1a 6c 3d 88 93 55 be
       -1.1049478 0.50248206 0.05764205 -0.2085706
000290 d7 ab e3 be 20 02 12 3f 8a 00 14 bf 96 75 bf bd
       -0.4446704 0.5703449 -0.5781332 -0.093485996
0002a0 0f a0 19 3f 33 85 41 be f4 e8 b8 be 02 cf aa be
       0.60009855 -0.18898468 -0.3611523 -0.3336106
0002b0 6f dd b9 3e 08 bd e2 be d5 39 25 bf b6 b1 b6 3e
       0.36301753 -0.44284844 -0.6454137 0.35682458
0002c0 72 97 2c bf f5 be 24 bf 92 7e 04 be cb d6 1c bf
       -0.6741859 -0.6435388 -0.12938908 -0.6126525
0002d0 c9 84 1e 3f 0f 5d b6 be 61 44 af bd 12 97 72 be
       0.61921364 -0.35617873 -0.08557964 -0.23690441
0002e0 b0 cc 80 3e 33 9d a1 be ee 58 43 bf 07 99 43 3f
       0.25156164 -0.31565246 -0.7630757 0.76405376
0002f0 01 6c 10 3f 68 47 fc be 12 80 c6 be 21 dd b7 be
       0.564148 -0.4927323 -0.38769585 -0.35910895
000300 85 3d ce bd ce 72 c8 3f d8 99 14 3f 28 e9 20 3f
       -0.10070328 1.5660036 0.58047247 0.6285577
000310 4b ad c7 3d 68 6f cd 3d db ea fd 3e f3 5a 00 40
       0.0974985 0.10031015 0.49593243 2.005551
000320 28 d7 d5 3e 3c 8e 99 3f 37 71 25 3e 1d 45 2b 3f
       0.41765714 1.1996531 0.1615647 0.66902333
000330 73 df ac 3e 15 66 20 3e 9c 57 04 3e 0f 40 0f 3b
       0.33764228 0.15663941 0.12924045 0.002185825
000340 ef 3b 28 3e 8f 69 d8 be ee 50 a2 3f 50 6f 14 3f
       0.16429113 -0.42268035 1.2680948 0.5798235
000350 85 8d 51 3f 91 60 92 bc 7a f8 61 3f 03 ba b0 be
       0.81856567 -0.017868312 0.8826977 -0.34516916
000360 09 c7 93 3f 3f e3 01 3f d8 0b de 3e 33 c6 a0 3f
       1.1545116 0.50737375 0.4336841 1.2560486
000370 28 06 85 bc 89 70 b0 3f b3 de 34 3f 9b a0 84 3e
       -0.016238287 1.3784343 0.7065231 0.25903782
000380 15 f5 e7 bd a1 d9 6c 3f df 58 b2 3e 97 bf d3 3e
       -0.113260426 0.92519575 0.34833428 0.4135711
000390 b8 99 81 be f0 aa 15 3f ed 52 79 3f 79 37 08 3e
       -0.2531259 0.58463955 0.9739216 0.13302411
0003a0 94 41 a9 3f a0 90 7f 3f 22 84 d5 3e 45 91 4a 3f
       1.3223138 0.99830055 0.41702372 0.79127914
0003b0 23 aa 89 3f 66 d1 1e bd 3a bf 51 3f 36 64 d3 3e
       1.0755047 -0.038773917 0.81932414 0.41287392
0003c0 88 e1 72 3f f9 3a 68 3f e1 46 47 3f 8a 6e 77 3e
       0.94875383 0.90714985 0.7784253 0.24163261
0003d0 23 51 1f 3e bd 10 3f 3f d7 34 ad 3e 59 81 f5 3c
       0.15558295 0.74634916 0.33829376 0.029968904
0003e0 1f df 16 3e ad fb 46 3f 91 f4 26 3e ed 29 e4 3e
       0.14733551 0.77727777 0.16304232 0.44563237
0003f0 d4 b0 65 3e 3f a8 62 3f 80 8c b2 3e 06 ca 4c 3f
       0.22430736 0.88537973 0.34872818 0.79995763

weight_ih_l1 f4 [256, 64]
000000 3d 65 51 bd 95 16 59 3e 8b 6c 96 3f f2 25 21 3f
       -0.05112194 0.2120002 1.1751875 0.62948525
000010 2f ff 0d be d6 70 0a bf 48 c2 45 bd b4 96 51 3f
       -0.13866876 -0.54078424 -0.048280984 0.8187058
000020 a4 91 e7 bc 02 a2 85 bf eb 36 0b 3e 95 64 c5 bf
       -0.028267689 -1.0440066 0.13595168 -1.542132
000030 06 fb 90 bf 8a 67 97 3f 5a 94 e9 3e 21 ea ce 3e
       -1.1326606 1.1828473 0.45620996 0.40413
000040 86 c3 31 3e 05 00 69 be d5 8d ba 3f 19 20 0c bf
       0.17359743 -0.22753914 1.4574534 -0.5473648
000050 f4 24 12 bf 99 dd ee bf 6f 80 d1 bf 98 66 2c c0
       -0.57087636 -1.8661376 -1.636732 -2.6937618
000060 47 91 49 3f 1d 7b 76 3f b8 0e c9 bc 6b 74 a6 be
       0.787373 0.96281606 -0.024543151 -0.32510695
000070 40 4b 46 3f 4e fd a0 3f 2d 8b 8d be 3d 30 cb be
       0.7745857 1.2577302 -0.27645245 -0.3968524
000080 6d 04 c3 3f b9 06 10 c0 10 2a 02 40 f9 9d 3f bc
       1.5235726 -2.2504103 2.0338173 -0.011695378
000090 9a ab 56 3f e4 2d e2 bf 37 0f a2 be b1 f7 cb bf
       0.83855593 -1.7670255 -0.31652233 -1.5934964
0000a0 f4 1a 03 40 4b 5e 62 3f 17 87 eb be 9a 02 fe 3e
       2.04852 0.8842513 -0.46001503 0.4961136
0000b0 73 27 60 3f ae 8e 67 bf e8 24 6c bd a7 2b 52 bf
       0.87560195 -0.90452087 -0.057652384 -0.8209786
0000c0 64 09 7c bf 4d 75 88 3f 75 c9 f0 3f b1 df 32 bf
       -0.9845183 1.0660797 1.881148 -0.69872576
0000d0 32 20 40 bf 45 25 2e bd 18 f2 02 40 92 a2 d5 3f
       -0.75049126 -0.04251601 2.0460262 1.6690238
0000e0 97 25 a8 3f d4 d2 8a 3f ac f4 eb 3f 0a bf e2 3e
       1.3136472 1.084559 1.8434043 0.44286376
0000f0 40 45 77 bf a9 54 e2 3e 49 08 06 3e 7a 63 c5 bf
       -0.9659004 0.44205216 0.13089098 -1.5420983
000100 9b 26 ae 3f de 28 8f 3f 27 ff 60 bf 22 5a 44 3f
       1.3605531 1.1184347 -0.8788933 0.7670003
000110 b4 c6 62 3f 3a 7b b0 3f 7b b3 e3 be 9b 09 df be
       0.88584447 1.3787606 -0.4447287 -0.43562016
000120 65 9b b3 3f 89 c6 f4 be 39 f0 48 bf 20 db 4c be
       1.4031798 -0.4780772 -0.7849155 -0.20005465
000130 9d e2 01 3f 23 69 de 3e 28 eb ac be 45 58 a2 3f
       0.5073641 0.43439588 -0.3377316 1.2683188
000140 9f 4a f2 bf 5e 54 96 bd fe 64 9f bf 0e 87 b5 3f
       -1.8929023 -0.073403105 -1.2452695 1.418184
000150 07 17 08 40 c0 05 bb 3f ab 25 d8 be e5 ee fa 3e
       2.1264055 1.461113 -0.42216238 0.49010387
000160 68 51 09 3e 63 04 f9 3e e9 4f 98 be 7f 05 5f bc
       0.1340996 0.4863616 -0.29748467 -0.01361215
000170 72 32 d8 b9 55 d6 ee be fb 9b db bf 75 f3 b1 be
       -0.00041236315 -0.46647897 -1.7156976 -0.34756055
000180 4c 80 d7 3f 0c 80 15 bf ce 52 89 3f 25 67 72 3f
       1.6836028 -0.5839851 1.0728395 0.94688636
000190 e1 f6 11 bf 70 56 e0 3f e6 42 62 be c7 58 6e be
       -0.5701733 1.7526379 -0.22095832 -0.23276053
0001a0 03 7c 90 bf 1b 57 13 bd 47 60 80 3f 36 31 0a bf
       -1.1287845 -0.035971742 1.0029382 -0.5398134
0001b0 7b 73 d7 be 82 e0 42 3f 17 66 42 3f 2f 18 1d be
       -0.42080292 0.7612382 0.75937027 -0.15341257
0001c0 13 17 35 be c5 85 01 3f 00 4f a4 3e b9 04 13 3f
       -0.17684583 0.5059474 0.32091522 0.5742908
0001d0 6d 5f 75 bf 0a bd b7 3f af 90 06 c0 10 6e 77 be
       -0.95848733 1.4354565 -2.1025808 -0.2416308
0001e0 e9 6e 72 3f ff 29 e6 3e c8 90 c0 3f ca 54 1d bf
       0.94700485 0.44953915 1.5044184 -0.614575
0001f0 b4 fa 4d be a7 8a 51 3e 73 49 26 bf 16 e7 dc 3e
       -0.20115167 0.20463048 -0.64955825 0.43145055
000200 8e 69 f2 be 83 ed 1c bf c3 70 a9 3c 21 ca c8 3d
       -0.47346157 -0.61299914 0.020683652 0.09804178
000210 43 d2 11 3d 1b 42 af 3f b5 d8 9d bf 07 3e db bd
       0.03560091 1.3692049 -1.2331759 -0.1070519
000220 68 85 5a bf c3 a9 11 3f 90 59 6a be 20 2b 0b be
       -0.8535981 0.5689966 -0.22885728 -0.1359067
000230 ef 59 aa 3f 57 ba 80 bd 79 57 a5 bf ef c7 e7 3f
       1.3308696 -0.062855415 -1.291732 1.810789
000240 32 93 0f bb a7 30 d2 be 1f 3a c0 be a5 dc 43 3f
       -0.0021907804 -0.41052744 -0.37544343 0.7650855
000250 32 98 01 3f 84 88 8d bf ce c6 33 bf d1 bb 65 bf
       0.50622857 -1.1057286 -0.70225227 -0.8973971
000260 8f b9 24 bf 91 1b 3b bf 95 24 aa be 82 7c e2 3e
       -0.6434564 -0.7308894 -0.33231035 0.44235617
000270 1e c9 ab bd e8 1e 76 bf df 72 00 c0 0d 1e 03 bf
       -0.083879694 -0.9614091 -2.0070112 -0.5121773
000280 42 60 da bf b8 08 02 bf dc c8 fa 3c 47 9e 60 be
       -1.7060626 -0.50794554 0.030613355 -0.21935378
000290 66 1c 5b bf fb 70 a2 bf d6 7b 9c 3f 0c 9c 3d bf
       -0.8559021 -1.2690729 1.2225292 -0.74066234
0002a0 8a f0 c4 3f 20 57 6a 3f 76 8b e5 bf 16 e1 2e 3f
       1.5385907 0.9153919 -1.7933185 0.68312204
0002b0 90 e3 c8 bf a2 c0 d1 bc cd 2b 2a 3f b8 09 57 3f
       -1.5694447 -0.02560455 0.66473085 0.83999205
0002c0 24 ff 43 bf d3 fb aa 3e 76 89 39 3f 4e 8b 1e 3f
       -0.7656119 0.33395252 0.72475374 0.6193131
0002d0 5e 3c da 3e 16 57 e0 be 46 9f 2f 3c d4 28 03 40
       0.42624182 -0.4381644 0.010719126 2.049367
0002e0 ca 36 a1 3e 9c f3 1c bf 31 fb 25 3f 2c b6 c3 3e
       0.31487113 -0.6130922 0.6483641 0.38224924
0002f0 c9 14 d4 3e e3 51 cd bf 07 10 b4 bf 97 60 4f 3f
       0.41422108 -1.6040615 -1.4067391 0.8100676
000300 d9 20 85 bf 70 7a 61 3f 18 2a d5 3d f8 ce 33 bf
       -1.0400649 0.8807745 0.10408419 -0.70237684
000310 47 fb af bf cc 8b 3f 3f ea aa 41 be 0f b3 06 3f
       -1.3748559 0.7482269 -0.18912855 0.5261697
000320 c9 09 bc 3c 94 2a 6a 3d 8c cd a3 be fe 4d d0 be
       0.022953885 0.057169512 -0.31992757 -0.40684503
000330 68 f9 f5 3e 4c 74 87 bf 1e 2c 5d bf 83 64 a0 bf
       0.48041844 -1.0582366 -0.8639544 -1.2530674
000340 f7 eb c0 bf 85 de cd be 76 37 1c bd 65 90 0e 3f
       -1.5072011 -0.4020883 -0.03813883 0.5568908
000350 25 79 96 3f f2 34 58 be 89 23 58 bf 03 c2 1c 3f
       1.175572 -0.21113947 -0.8442922 0.6123354
000360 04 03 8d bf a0 f7 c1 bf 00 89 4e 3e 7e 3e 81 be
       -1.1016545 -1.5153694 0.20169449 -0.2524299
000370 df 9e 45 3f d0 a1 77 3e 26 1b e9 be 0b d1 59 3f
       0.77195543 0.2418282 -0.45528525 0.850846
000380 81 ca 20 3f bd 70 6d 3f 08 b1 0f bd fa 59 2b be
       0.62808996 0.9275015 -0.03508094 -0.16733542
000390 20 bc 3f 3f 30 a9 28 bf 35 57 7b 3e a5 69 66 3f
       0.7489643 -0.6588316 0.24544986 0.9000495
0003a0 17 c9 14 3f be 68 3c 3f 43 83 83 3e ae 12 98 be
       0.5811934 0.73597324 0.25686082 -0.2970175
0003b0 1b 07 80 3f dd 0c d6 3e 70 c9 40 be 2c b7 02 bf
       1.0002168 0.4180669 -0.18826842 -0.5106075
0003c0 94 eb 1e bf 09 62 2a 3f 10 50 78 bf 19 d1 a3 3e
       -0.62078214 0.6655584 -0.96997166 0.31995466
0003d0 4a 34 1a bf 36 a5 5b 3e 17 6e cb bf 07 a4 42 bc
       -0.60236037 0.21449742 -1.5892972 -0.0118799275
0003e0 10 d4 c8 3e 42 71 f8 3c 5f c3 c1 3e 86 c1 c5 3f
       0.3922429 0.030327443 0.3784437 1.5449684
0003f0 b5 04 77 3e 4d c2 f5 3e 23 48 c0 3c ff 82 88 be
       0.2412289 0.47999802 0.023471897 -0.26662442

weight_hh_l1 f4 [256, 64]
000000 fe fe 52 be 67 12 13 3f d9 c4 1e 3f 6e 26 e1 3f
       -0.20605084 0.57449955 0.62019116 1.7589853
000010 f5 8b 0d 3f 91 b0 1d 3f 13 cb c8 be a3 75 0e 40
       0.5529168 0.61597544 -0.39217433 2.22593
000020 77 93 c9 3e 77 4a 60 bf d6 42 81 bf 71 3e e2 be
       0.3937032 -0.87613624 -1.0098522 -0.44188264
000030 c8 6b b5 bd 3a 49 a6 3f 6b 56 54 3f 8c 15 4f be
       -0.08858448 1.2991097 0.82944363 -0.20223063
000040 85 b5 03 40 99 e9 13 3e 45 21 3e be 58 91 94 be
       2.057954 0.14444579 -0.18567379 -0.29017138
000050 24 59 83 3f f1 30 2e 3f c1 4c a2 3f b4 9b d7 3f
       1.0261579 0.6804343 1.2679673 1.6844392
000060 28 ae 33 c0 35 bf 8b 3e 23 53 c8 bd d1 cf 2e 3f
       -2.8075047 0.27294317 -0.09781482 0.6828585
000070 bb 9c 44 bf a8 47 13 40 ae c4 ed be d7 0a 2d be
       -0.7680165 2.3012486 -0.46439117 -0.16898666
000080 0b 60 32 bf 24 17 c6 3e 02 7b 67 3f 29 4c 2b bf
       -0.696778 0.3868953 0.9042207 -0.66913086
000090 56 df ca bf 73 d5 8f bf 67 3a 41 3f 3b 10 a0 3f
       -1.5849407 -1.1237015 0.7547974 1.2504953
0000a0 82 15 a7 3f 13 e7 03 bf 1c 56 d1 bc ed 26 22 c0
       1.3053439 -0.51524466 -0.025553755 -2.5336258
0000b0 85 ce 94 be 74 ac df be ed 77 c3 3b 0a 4b bc bf
       -0.29063812 -0.4368626 0.005965224 -1.47104
0000c0 7e c5 8b 3f 89 e2 f5 bc c7 5a c3 bf 86 8d 57 bf
       1.0919645 -0.030015247 -1.5262078 -0.8420032
0000d0 a0 b2 45 3f 03 f7 32 bf ac 82 1a bd 46 04 b4 3f
       0.77225685 -0.6990816 -0.037722275 1.4063804
0000e0 3d 9c 89 3f a2 1f 90 3d 6f 11 89 3f 72 3d 9e 3d
       1.0750805 0.070372835 1.0708445 0.077265635
0000f0 84 d1 28 bf 33 30 fc be 0d fa 1e 3f 8a 09 af be
       -0.65944695 -0.49255523 0.621003 -0.34186965
000100 30 ac eb be 2d e5 bb 3e 48 e3 22 be 1f f4 3e bf
       -0.46029806 0.36698285 -0.15907013 -0.7459125
000110 6d a1 db be 18 8a 07 3f 33 3a 02 40 9e 53 31 bf
       -0.42896596 0.5294509 2.0348022 -0.69268215
000120 92 7d 5a bd c8 22 b4 3f e2 35 c6 3b 43 68 5f 3f
       -0.05334241 1.4073114 0.006048904 0.87268466
000130 73 0c ee 3e e9 bb c5 3f 95 73 36 bf 3c bc e7 3e
       0.46493873 1.5447971 -0.71270114 0.452608
000140 07 9f 59 3d c7 bb af bf 72 24 33 be e0 d7 36 3f
       0.053130176 -1.372918 -0.17494372 0.7142315
000150 36 aa 43 c0 83 5f b3 bf 30 78 44 be 21 52 b7 be
       -3.0572639 -1.4013523 -0.19186473 -0.35804847
000160 64 e3 7c 3f 8f 4f bc 3d 31 fa 7a 3f 6e c6 92 3f
       0.9878447 0.09194862 0.9803801 1.1466806
000170 36 53 a9 be fc 0d 04 3f 20 9b 76 bf d7 00 a4 be
       -0.33071297 0.5158384 -0.9633045 -0.3203189
000180 64 df 16 3d 5d 66 a4 3f 3e 11 a5 be 73 5a a9 bf
       0.036834136 1.2843739 -0.32239717 -1.3230728
000190 d2 13 63 3f c1 17 18 c0 ad 99 25 3f 5f 5f 29 3e
       0.8870212 -2.3764498 0.64687616 0.16540287
0001a0 d7 95 29 bf 7b f1 08 bf 0a be 94 be cc 20 de bf
       -0.6624426 -0.5349347 -0.29051238 -1.7353759
0001b0 80 e7 ab 3f 44 42 c1 bf c5 97 8f 3f 88 b3 0e be
       1.3430023 -1.5098348 1.1218191 -0.13935673
0001c0 91 32 26 40 90 6f b5 3e 7e d7 d3 bd 47 58 12 3e
       2.5968363 0.35436678 -0.10343836 0.14291488
0001d0 b2 50 45 3e 11 57 a5 be ae 13 dd bf da ac c2 3f
       0.19269064 -0.3229299 -1.7271631 1.5209
0001e0 b4 d7 48 bd 6e e9 2a bf c2 83 eb bf c8 fb d5 be
       -0.049033836 -0.66762435 -1.8399584 -0.41793656
0001f0 89 dd 63 3e b1 20 ce be 41 b7 96 bd bd aa 43 bf
       0.22252478 -0.40259317 -0.07359172 -0.764324
000200 ff 1f 47 bf 96 c1 6f 3d f3 57 c3 3f b6 4b 3f 3f
       -0.777832 0.058534227 1.5261215 0.747249
000210 8f cf bc bd 46 49 ec 3e db d7 82 be 43 a0 46 c0
       -0.09219276 0.46149653 -0.2555531 -3.1035316
000220 96 60 d0 bf 5e e9 6f bd 61 7d 5a 3f 0a 1c 4f bf
       -1.6279476 -0.058572166 0.85347563 -0.8090216
000230 47 40 5a 3f af ca b3 3f 91 91 41 3e 74 ab 2c bf
       0.8525433 1.4046229 0.18903185 -0.67449117
000240 66 6e b5 3e 84 34 23 40 93 14 c1 be ba 9a 4c 3d
       0.3543579 2.5500803 -0.3771101 0.049952246
000250 0e 68 e0 bf 3f 90 7f 3f 47 6b 52 bf 72 b4 59 3e
       -1.7531755 0.9982948 -0.8219494 0.2126024
000260 ef a2 ea 3f a0 c4 a6 3f 45 92 7c 3f 73 b5 bb 3d
       1.8330973 1.3028755 0.9866069 0.09165468
000270 87 8e 30 bf 67 e3 83 3e 53 53 cc be 84 ed b8 3d
       -0.6896748 0.25759432 -0.3990732 0.090296775
000280 75 7f 06 40 6d 05 04 3f 78 69 a4 3e bf eb 1f c0
       2.1015294 0.5157078 0.32111716 -2.4987638
000290 57 cd cc 3e 5c 7e e3 bc 35 26 25 3f 6f 95 82 bd
       0.40000412 -0.027770214 0.64511424 -0.063761584
0002a0 7d 84 db be f4 d3 a9 be c4 c7 99 3f fa 86 b5 3e
       -0.42874518 -0.3316952 1.2014089 0.3545454
0002b0 bb 5e f9 3f e5 89 21 3f 4e 53 05 3f c5 85 6a 3f
       1.9482034 0.63101035 0.5208024 0.91610366
0002c0 fc f7 f3 be d0 90 15 bf 26 8b 99 3e 99 2b 89 3f
       -0.47650135 -0.5842409 0.29988974 1.071643
0002d0 a2 f9 f4 3e ed db 9f 3f ab 6e 73 3f 4b b0 2b 3f
       0.47846705 1.2488991 0.9509074 0.67065877
0002e0 b9 19 8e bc 93 0e 2c bf 6f d8 3b bf a8 4c f5 3f
       -0.01734625 -0.6720974 -0.73377126 1.9164019
0002f0 5d d6 9f bf 78 2c 46 3f b8 c5 48 3f 1e 8b 43 bf
       -1.2487293 0.77411604 0.78426695 -0.7638415
000300 f6 82 ae be 92 33 5e bd a4 ea fd bd cc 88 e8 be
       -0.3408429 -0.0542484 -0.1239827 -0.45416868
000310 db 97 59 3f 32 ed 8a 3d 54 f3 b6 3f 25 cd 99 3f
       0.8499734 0.06783523 1.4293008 1.201573
000320 61 04 53 3f b3 64 97 bf 4d bd 81 3d 2f 4f f6 be
       0.82428557 -1.1827606 0.063349344 -0.48107287
000330 b4 8c 55 3f d5 81 f8 3e 00 12 51 3f a1 48 a3 bf
       0.8341782 0.48536554 0.8166809 -1.275654
000340 54 47 d9 be c7 58 64 bf 3b bd c7 be 6b a2 c7 3f
       -0.42437232 -0.89197963 -0.3901156 1.5596441
000350 7b 68 19 3d 4b 39 e0 3f 1e ea 91 bf e8 c3 43 bf
       0.037453156 1.7517484 -1.1399572 -0.76470804
000360 e8 ee 57 bd 21 be 11 3e a7 bb 3a 3e 0e d4 80 3f
       -0.052718073 0.14232685 0.18235646 1.0064714
000370 b4 b4 12 3f c8 4b bb 3e 06 41 7b be 7b f0 03 bf
       0.5730698 0.36581254 -0.24536523 -0.5153882
000380 14 17 ed 3e c6 74 9b 3e 50 91 35 3d 39 9b a0 3d
       0.4630667 0.3036253 0.044328034 0.07842106
000390 a3 77 32 bf d4 5e 9f 3e b4 3d 5e 3e 5e 67 0f be
       -0.697138 0.31127036 0.21703225 -0.14004275
0003a0 ae 66 e8 3d 7b 2e be 3f 8f d9 ca 3f dd d7 14 3f
       0.113477096 1.4857935 1.5847644 0.5814188
0003b0 c0 77 90 bf 61 85 74 3f 36 eb d6 bf d8 e9 6c 3e
       -1.1286545 0.9551602 -1.6790531 0.2313608
0003c0 86 97 66 3f 0e 80 68 3f 86 fb 8c bd 83 7c 43 bf
       0.90074956 0.90820396 -0.06883912 -0.76361865
0003d0 3c 10 4a bd 06 bd b9 bd 45 c0 c9 be 2b a1 88 bf
       -0.04933189 -0.090692565 -0.39404503 -1.0674185
0003e0 6d a1 7b 3e bf e1 a0 3f 28 4b d8 bf 8b 81 12 40
       0.24573298 1.2568892 -1.6897936 2.2891567
0003f0 f8 e3 ff 3e 4b 10 86 be fb 6b 63 bf ad 5c 2f 3e
       0.49978614 -0.26184306 -0.8883664 0.17125197

bias_ih_l1 f4 [256]
000000 be 95 ef bd 93 45 c4 be 37 59 35 be 09 a8 bd be
       -0.11698483 -0.3833433 -0.17709814 -0.37042263
000010 cf 9e f4 be 07 f9 dd be ea 79 05 bf ec f7 09 bf
       -0.4777741 -0.43354055 -0.5213915 -0.53893924
000020 5c 36 3b bf 84 b2 37 bf 9e 99 2f be c3 15 10 bf
       -0.7312982 -0.7175677 -0.17148444 -0.56283206
000030 45 96 01 bf 77 6c d3 be a0 32 af be 37 b9 11 3d
       -0.5061992 -0.4129369 -0.3421831 0.035577025
000040 17 ad 60 be e2 ab 50 bf b8 69 11 be 28 9c e7 bd
       -0.21941029 -0.8151227 -0.14200485 -0.11309081
000050 26 b4 be be 24 88 00 bf 8e 73 b1 be f8 ed 83 bd
       -0.37246817 -0.50207734 -0.34658474 -0.06441873
000060 45 99 ce 3e 2c 42 e0 be a2 7b eb be 35 62 a8 bd
       0.4035131 -0.43800485 -0.45992762 -0.082218565
000070 13 b3 db be cc 97 d5 be 14 9e 97 3e 73 a7 02 bf
       -0.4291006 -0.41717374 0.29612792 -0.5103676
000080 3c 5f 36 bf 5b b6 47 be 2d f6 e5 be 2e 85 2d bf
       -0.71239066 -0.19503157 -0.4491438 -0.6778134
000090 3d 4a 4e bf 89 97 11 bf 1b 7c 0b bf 24 03 3e bf
       -0.8058203 -0.5687185 -0.54486245 -0.7422354
0000a0 2a b7 9a bb 45 25 32 bf bd be d4 be d9 fb 1a be
       -0.004721542 -0.6958812 -0.41551772 -0.15135135
0000b0 44 13 fd be 75 2a f4 3d 31 22 64 be a5 ad 49 be
       -0.4942876 0.119221605 -0.22278668 -0.19695146
0000c0 ff b5 03 bf d7 4f 2d bf d5 d1 a6 be d3 c2 a1 be
       -0.5144958 -0.6769995 -0.32581964 -0.31593952
0000d0 6a 51 0a bf 7e 62 9c 3e d6 fc 58 bf 37 8a 03 bf
       -0.5403048 0.30543894 -0.847608 -0.51382774
0000e0 7c f1 06 bf 98 c0 73 be ef 91 48 be 52 39 04 be
       -0.52712226 -0.23803937 -0.19586919 -0.12912491
0000f0 ec 03 01 be 69 66 74 be 62 86 91 3d e0 8d 3a bd
       -0.12599152 -0.23867191 0.071057096 -0.04554546
000100 ac f2 84 bf fd a7 02 bf 2c 3d 39 3d a1 9f 65 bf
       -1.0386558 -0.5103758 0.045224354 -0.896967
000110 01 2a 46 be 17 b8 7f bf 3c 82 3e 3c 86 b0 f5 3c
       -0.1935196 -0.99890274 0.01162773 0.0299914
000120 7f df af bd 33 d2 94 bd 7e 27 e8 be e6 39 7c bd
       -0.0858755 -0.07266655 -0.4534263 -0.061578654
000130 b7 c2 b1 3d 14 01 d8 bd c8 5f 4d 3e 57 2e 0c be
       0.08679717 -0.10547081 0.20056069 -0.13689552
000140 ab 25 b2 3d b4 f8 30 bf 8e 1a 03 be 18 58 89 bf
       0.08698591 -0.6912949 -0.12803099 -1.0730009
000150 c0 e4 ba bf f0 1a 3c bf 95 5f 9f 3f 9f c5 05 be
       -1.4601059 -0.73478603 1.2451044 -0.13063668
000160 bf 05 11 bf c1 85 ec be 63 d9 a9 be b8 5d 34 bf
       -0.5664939 -0.46195796 -0.33173665 -0.70455503
000170 af 96 8c bf 0d eb 19 bf 2c de 92 3e 00 01 88 bf
       -1.0983485 -0.60124284 0.2868513 -1.0625305
000180 40 aa cb 3c bc 2d 80 3e 19 c2 07 bf 25 7a a7 3d
       0.024861455 0.25034893 -0.53030545 0.08177594
000190 7f b7 3e bd 58 bc e4 be 47 df 9e 3e 81 7b 33 bf
       -0.046561714 -0.44674945 0.31029722 -0.70110327
0001a0 20 02 bc bf 38 02 03 bf 39 ad 93 bf c1 a9 df be
       -1.4688148 -0.5117526 -1.1537238 -0.436842
0001b0 33 c2 28 3d 9c b4 11 be 3e 97 af bf 3f 33 d7 be
       0.041200828 -0.14229053 -1.371803 -0.42031285
0001c0 e4 4a 92 bf c0 c4 58 be fc 18 5d bf c6 6b 32 3f
       -1.1429105 -0.21168804 -0.8636625 0.696957
0001d0 fb b6 de 3e 2b 79 74 be ee fc 77 bf 08 3b da 3d
       0.43498978 -0.23874347 -0.96870315 0.106557906
0001e0 cd 98 75 bf b3 f3 29 be 0b 7c 97 bf b2 5b ed bd
       -0.9593628 -0.1659687 -1.183473 -0.11589755
0001f0 f3 82 2b bf 2a c1 27 3f 83 1e 7f be a5 cb 0c bf
       -0.6699669 0.6552912 -0.24913983 -0.54998237
000200 65 32 c5 bb fc 24 f3 3d bd ec 50 be 0c 95 1a be
       -0.0060179704 0.118722886 -0.20402808 -0.1509592
000210 a8 d0 91 be e4 f6 51 be 43 2d 49 3e 46 37 65 be
       -0.28479505 -0.20504338 0.19646172 -0.22384366
000220 72 57 23 be 4b 76 ac be 4e 38 22 bd be fc 21 bc
       -0.15951326 -0.33684 -0.039604478 -0.009886919
000230 70 f8 96 3e 03 30 a9 bd 37 bc a4 bd 43 19 49 be
       0.29486418 -0.08261111 -0.08043712 -0.19638543
000240 a1 01 59 bd ed fd 6e 3e a2 78 d9 bc cc e2 86 bd
       -0.05298007 0.23339052 -0.02654678 -0.06586227
000250 74 db 84 bb 24 c1 b5 3d 79 a4 3f 3e 7c 81 6d be
       -0.004054481 0.08874729 0.18715085 -0.23193926
000260 ef d9 d3 3d 9f 5d 6f bd 27 06 7d 3c 47 cf 93 be
       0.10344302 -0.058438893 0.015443361 -0.28869078
000270 b4 b8 31 bd c8 48 97 bd 65 85 4f be 21 69 90 be
       -0.043389037 -0.07386929 -0.2026573 -0.28205207
000280 c3 e1 39 3e c9 04 a4 3e 52 76 81 3d 72 72 c3 be
       0.18152528 0.320349 0.06321396 -0.38173252
000290 61 bd 4a be ce 5a f0 3d 4e 42 2e be b7 07 35 3e
       -0.19798805 0.117360696 -0.1701748 0.17678724
0002a0 0b 32 fb bc bb 59 18 be f0 97 06 be 1c 3a c4 3d
       -0.03066351 -0.1487798 -0.13143897 0.09581396
0002b0 9c ef 85 bd ed 87 92 3d 24 b2 e4 3d 06 05 67 bd
       -0.065398425 0.07154832 0.1116679 -0.056401275
0002c0 f3 96 00 bd 74 6b 80 bd 3d 01 d1 ba 5c 4c a8 3e
       -0.031393956 -0.06270495 -0.0015945804 0.32870758
0002d0 7f cb e6 be a4 c2 d4 bd 09 50 d5 3d bc ed 10 be
       -0.4507713 -0.10388687 0.10415656 -0.14153188
0002e0 58 ee 86 be 72 df 11 bd d6 53 dc 3c fe 11 16 bb
       -0.26353717 -0.035613485 0.026895445 -0.0022898908
0002f0 c1 f7 d5 3d 1c 07 96 be 85 0b 46 3e 04 30 cf bd
       0.10447646 -0.293023 0.19340332 -0.1011658
000300 4d 0b dd be 39 73 02 3f c9 57 a7 3e 42 06 88 ba
       -0.43172684 0.50957066 0.32684162 -0.0010377842
000310 0a 33 60 3e 61 53 38 3d 7e d4 08 3e 36 86 1f 3e
       0.2189447 0.04500139 0.1336231 0.15578541
000320 53 bb 81 be 0e 46 30 3e 31 b3 c2 3e 80 cd c9 3e
       -0.2533823 0.17214224 0.38027337 0.39414597
000330 9b b7 ba 3e 84 85 47 3e 35 1c d1 3e eb 4d 46 3e
       0.36468205 0.19484526 0.40841833 0.19365661
000340 ce dd 9c be 2e 30 e7 be 32 e2 a6 3e 4f 53 04 3e
       -0.30637974 -0.45153946 0.32594448 0.12922405
000350 21 5b fb be e7 63 06 bf 59 2c 9f bd 6a c3 2e 3e
       -0.49092963 -0.5249619 -0.077721305 0.17066732
000360 d1 37 a7 3d 9d 1f c8 be 12 ff a6 3e 87 8f 32 be
       0.08164943 -0.3908662 0.32616478 -0.17437564
000370 ac 2d f2 3e e0 4e 61 be 8a 76 8e 3e 09 28 96 3e
       0.4730047 -0.22002745 0.27824813 0.2932742
000380 3d 65 95 3e d2 fa 29 3f 3c d9 ae 3e 65 c3 bb 3e
       0.291788 0.66398346 0.34150112 0.36672512
000390 d7 ca fc bd b3 6e 0c bf 04 d4 c6 3e c4 3e 06 3d
       -0.12343376 -0.54856414 0.3883363 0.0327747
0003a0 69 27 29 be 74 5e 8e bd c8 38 e9 be b9 fe 61 3a
       -0.1651894 -0.06951609 -0.45551133 0.00086210255
0003b0 74 3b 08 be 6c 76 5c 3e 19 80 cd bd bd bb 88 3e
       -0.1330393 0.2152955 -0.10034198 0.26705733
0003c0 b7 1e 39 3e 2c 86 f8 3e 28 d7 2d 3f 84 d1 c9 be
       0.18078123 0.48539865 0.6790643 -0.3941766
0003d0 81 69 97 be 8b e4 92 bd d8 7f e2 3e 10 f6 ea 3e
       -0.2957268 -0.07172497 0.44238162 0.45890856
0003e0 1b ed e8 bd 0c 56 c3 3e 86 a3 58 be e5 1c 0a bf
       -0.11373349 0.38151586 -0.21156129 -0.5395034
0003f0 f5 12 58 3e 75 a2 1d be 82 56 03 3f 43 90 76 be
       0.21100982 -0.15394004 0.51303875 -0.24078469
